TestCode/ModelSave/TxConvNet.pkl (torch, 2501 bytes, 2 tensors)

TxNN_FFE_Base.conv1.weight f4 [2, 1, 55]
000000 c1 6e 0a 3c 68 75 6c bb 81 38 b5 ba 50 5f 07 3c
       0.008449257 -0.0036080722 -0.0013826044 0.00826247
000010 d2 9e dd bb b1 06 02 3c 23 97 40 bc 4a 1e 3f bc
       -0.0067633176 0.007936166 -0.011754784 -0.011664936
000020 b6 cd 98 3c b5 da cf bb 9d e7 79 3c 3f 25 08 bc
       0.018652778 -0.0063432106 0.015252975 -0.008309661
000030 eb 87 20 3c 5f 63 05 bc 50 c5 09 bc 61 4d 4c 3c
       0.00979803 -0.008141368 -0.008408859 0.01246962
000040 33 75 41 bc 7f 42 21 bc ac 24 69 3b 8b aa af bb
       -0.011807728 -0.009842514 0.0035574837 -0.0053609065
000050 4a 2f 96 bb dc 15 f6 bb 50 2f 38 3c 4b b8 11 bc
       -0.004583274 -0.00750993 0.011241749 -0.0088940365
000060 0c bb 23 3d df 89 9a 3b 87 4a d9 bd d8 82 33 be
       0.039973304 0.0047161425 -0.10609918 -0.17530382
000070 df 28 23 3e cb e8 9c bd ca 5d 0e 3d f1 96 b4 bc
       0.1593356 -0.07661589 0.034757413 -0.02204463
000080 fb 93 17 3c 33 37 e5 b9 bd 07 64 3c 8c fb 27 ba
       0.00925159 -0.0004371941 0.013917861 -0.0006408028
000090 f8 52 d8 39 ae 62 08 3b a0 90 0f ba c6 ea 51 bb
       0.00041260547 0.002081077 -0.0005476568 -0.0032030805
0000a0 2b 9f 34 3a 9a 23 11 3a a3 60 02 b9 b1 80 14 bb
       0.0006890173 0.0005536616 -0.00012433766 -0.0022659714
0000b0 cf 47 bc 3a af c3 13 3b 7a 4b 66 3b de 3a 90 bb
       0.0014364662 0.0022547056 0.0035140202 -0.0044015488
0000c0 47 37 e6 b9 ef 5b 0e 3b 0e 63 1a ba 2b 96 86 3a
       -0.00043910203 0.0021722277 -0.0005889394 0.0010268142
0000d0 f8 66 be bb 24 28 39 bb 4a f9 60 3a 74 f2 13 bc
       -0.0058106147 -0.0028252685 0.0008582069 -0.009029973
0000e0 85 94 2d bc 27 ed 87 ba 45 dd de 3a 27 dc d0 ba
       -0.010594492 -0.001037036 0.0017003199 -0.0015934751
0000f0 a2 2c cb 3a a3 45 d6 3b f1 35 41 bc ab 54 cf bb
       0.0015500973 0.006539063 -0.011792646 -0.006327232
000100 7c 92 fb ba 28 56 ab 3b f8 f0 85 bc f2 01 1e 3c
       -0.0019193436 0.0052287765 -0.016350254 0.0096440185
000110 10 89 84 bc ae 37 9c bc aa ac c8 3b 5b 66 8b 3b
       -0.016178638 -0.019069519 0.006124099 0.004254145
000120 76 57 d7 ba 3d ac a2 bb 83 78 2d 3c 2b ab 77 bc
       -0.0016429264 -0.00496438 0.010587814 -0.015116493
000130 88 a4 1f bc 6d 4f e6 b9 61 75 6d 3b e3 61 58 3c
       -0.009743817 -0.00043928195 0.0036233293 0.013206932
000140 d5 24 f8 3c 78 bb 43 bd a5 a8 44 be 3b fc 6b 3d
       0.030291 -0.047786206 -0.19204958 0.057613593
000150 5b 4f dd 3c 85 ad 06 bd ca 79 dd 3c 14 12 0e bc
       0.027015379 -0.032880325 0.027035613 -0.008671302
000160 29 56 15 3c e3 91 44 bc ae 0e d4 ba e7 17 a2 ba
       0.00911478 -0.011997673 -0.0016178691 -0.0012366743
000170 70 87 9a 3b 49 35 b8 bb 1a 94 e9 3b 9d 51 90 b9
       0.0047158524 -0.0056215865 0.007128251 -0.00027526627
000180 92 c1 dc 3a c0 8a f3 b9 a3 58 31 3b 1e 1f 18 ba
       0.0016842356 -0.0004645195 0.0027060888 -0.00058029767
000190 0c 0c 0b 3a 49 d9 66 bb 19 10 1f ba 0e 62 a7 3b
       0.00053042243 -0.0035224727 -0.00060677674 0.0051081246
0001a0 ca b5 74 bb 43 2a 3a 3b 6f 68 30 bb d9 24 84 3b
       -0.00373398 0.0028406538 -0.0026917716 0.004032713
0001b0 46 97 05 3c 78 4d aa ba
       0.008153742 -0.0012993058

TxNN_FFE_Base.conv1.bias f4 [2]
000000 75 67 81 bd 7b 78 e2 bd
       -0.06318561 -0.11058136
