TestCode/ModelSave/TxPDLUTNet.pkl (torch, 278317 bytes, 7 tensors)

TxNN_main.fc0.weight f4 [64, 1024]
000000 9e 59 8c bc 4d e7 46 bb da e1 31 bd bf 63 2e bd
       -0.017132577 -0.0030350268 -0.04342828 -0.042575594
000010 27 b2 11 bd e7 5d 94 bc c7 45 e6 bc 32 c7 24 bc
       -0.03557029 -0.018111182 -0.028109444 -0.0100572575
000020 c9 8a 08 bd c3 88 b8 bc 00 53 3d bd da 6e 4d bd
       -0.03333548 -0.02252615 -0.046221733 -0.050154544
000030 4d 23 88 bd c8 dd 85 bd 83 c1 69 bd a3 65 3b bd
       -0.06647358 -0.06536442 -0.057069313 -0.045751225
000040 c8 27 79 3c 85 75 35 3c 5a a8 c7 bc 64 c5 ae bc
       0.0152072385 0.011075382 -0.024372268 -0.021334358
000050 22 72 a3 ba 3e 64 53 3c c2 f7 90 bc b0 7b f1 3b
       -0.0012469927 0.012902318 -0.017696265 0.007369481
000060 fb c0 a9 bc bb e6 88 bc c9 93 85 3b f2 5a 60 bd
       -0.020721903 -0.016711583 0.0040764553 -0.054774232
000070 b4 aa 36 bd 35 3e 0f bd 86 a1 29 bd 39 ae e5 bb
       -0.04459639 -0.034971435 -0.041413806 -0.0070092943
000080 f0 e5 d6 39 a1 7e 1a bb f4 53 1b bc 30 56 a3 bc
       0.00040988578 -0.0023574012 -0.009480465 -0.019938558
000090 16 0c 0e bc 28 1e 12 3d 50 68 9f 3c c7 01 89 3c
       -0.008669874 0.03567329 0.01945892 0.01672448
0000a0 49 43 9d 3b 0d 06 83 bc 7c 59 bf 3b 8b c0 eb bc
       0.004799281 -0.015994096 0.005839525 -0.028778335
0000b0 20 1c 0b bd 5f 08 b7 bc bf f4 c7 3b b2 9a c6 3b
       -0.03396237 -0.022342859 0.006102174 0.0060609216
0000c0 8d a0 90 3c a4 e8 c8 3c 0e 67 4d 3d 41 24 60 3d
       0.017654682 0.024524994 0.05014711 0.054722074
0000d0 6e 37 18 3d 18 1b fa 3c 66 98 25 3d 53 a5 72 bb
       0.037162237 0.030530497 0.04042854 -0.003702481
0000e0 9e 6f be 3c eb 38 c9 bb d9 ef 32 bc 17 5f 05 b9
       0.023246583 -0.0061408184 -0.010921442 -0.00012719292
0000f0 92 19 79 3c 3a cc 70 3c d8 db 01 bc 5c 90 31 3c
       0.01520385 0.014697129 -0.00792595 0.010837641
000100 1b 6c 37 3c 36 71 72 bc 11 be 1a bc 9a 85 16 bb
       0.011195208 -0.014797499 -0.009444729 -0.0022967816
000110 bc 22 76 3b 1f 31 2e 3c ad b1 24 bd b5 45 11 bd
       0.0037557324 0.010631829 -0.040208507 -0.03546687
000120 eb dc 47 bc 71 75 c6 3b 85 a1 90 3b f4 58 63 bb
       -0.012198667 0.0060564806 0.004413786 -0.0034690471
000130 18 5b d0 bc 04 59 70 bd a8 00 22 bd 0c 23 4d bd
       -0.025434062 -0.058678642 -0.039551407 -0.05008225
000140 c5 99 8e bc e7 a8 06 3d 5a 17 05 3d bb 65 e1 bc
       -0.017407307 0.03287592 0.032492973 -0.02751433
000150 6e 33 f4 3b aa c7 b6 bb 57 f4 86 bb 37 72 a5 bc
       0.00745242 -0.005578001 -0.004118483 -0.020196063
000160 01 f0 d1 3b e2 51 d4 bc e1 59 98 3a 8a e4 c1 ba
       0.0064067845 -0.025917951 0.0011623466 -0.0014792841
000170 5e 20 03 3c f7 00 89 bb da f0 42 bd bf ed 2e bd
       0.008003322 -0.004181023 -0.047592975 -0.0427072
000180 f0 8f 30 3d 1b fa 0e 3d 11 ce 01 3b 26 a7 97 3b
       0.04310602 0.034906488 0.0019806663 0.00462808
000190 f1 b8 4e 3d 1a fc 1c 3d 29 66 89 39 3e cd 08 3c
       0.050469343 0.03832636 0.00026206792 0.008349715
0001a0 ca ac 7e bc 30 f8 16 3c 5b 92 35 bc c8 a9 84 bc
       -0.015544126 0.009214446 -0.011082257 -0.01619424
0001b0 a4 19 73 ba 1d e7 8f 3b 4c cf 35 bc 8d 71 9a 3c
       -0.0009273535 0.0043915645 -0.011096787 0.018852973
0001c0 3c 32 c8 3c 5d 99 84 3d 21 a6 73 3d b9 f1 c5 3b
       0.024438016 0.06474564 0.059484605 0.0060407785
0001d0 11 bc ff 3c 29 c9 0b 3d ec ad 10 3d 3b d8 2d 3d
       0.031217607 0.03412739 0.035322115 0.04244254
0001e0 db 0d 2d 3d 53 17 06 3d a5 ac 8d 3c d7 75 27 3d
       0.04224954 0.032737087 0.017294237 0.040883865
0001f0 f7 e7 4b bc fe 54 da 3b c1 8d 61 3c b7 1b 25 3c
       -0.012445441 0.006662964 0.013766707 0.0100774085
000200 66 33 65 bc 90 54 c7 bc e5 be 32 bc c6 4d a1 3b
       -0.013989305 -0.024332315 -0.010909771 0.0049226014
000210 b3 ef e5 bc 7f 0f 0f bc ba ce 2c 3c 13 36 51 bc
       -0.028068399 -0.008731722 0.010547334 -0.01276924
000220 58 c8 f3 bb 6e 58 2d bc 27 5b 3c bc 25 7c d2 ba
       -0.0074396543 -0.010580165 -0.011496342 -0.0016058726
000230 7e c7 27 3c 71 10 1c bb 52 75 e9 3a f9 76 db bc
       0.010240434 -0.002381351 0.0017811453 -0.026790129
000240 d9 27 f4 bb 71 e6 3b 3b 54 bc 07 3d c2 72 59 3c
       -0.0074510393 0.002867129 0.033138588 0.013271989
000250 ed e3 99 ba 4c 9d 36 bc 08 80 a4 bc 74 de b1 bc
       -0.0011740901 -0.011145901 -0.020080581 -0.02171252
000260 19 d5 f8 ba 0b 17 7a 3c 2b c0 82 3c b5 79 08 bd
       -0.0018984406 0.015264283 0.015960773 -0.033319194
000270 1d 6e 9b 3c 91 01 fc bc 5f e7 53 bc 5f 0c c8 bc
       0.018973405 -0.030762466 -0.012933581 -0.024419961
000280 db 2a fb 3c ed 94 17 3d 7f 13 17 3b d2 5c 11 3b
       0.030660084 0.03700726 0.0023052392 0.002218057
000290 e5 02 c8 3c 0d a3 17 3d 38 7c 88 3c 8e db 11 3d
       0.024415443 0.03702073 0.016660795 0.035609774
0002a0 6f 87 3d bb ae d6 c8 3c 8f 7a 3e 3d 5d 6f 81 3a
       -0.0028919836 0.02451643 0.0465036 0.0009875108
0002b0 c5 e7 1c 3d a4 b8 d8 3c 32 cb 4a bc f9 0f f7 3c
       0.03830697 0.026455231 -0.012377547 0.030158984
0002c0 d7 c9 55 3d 77 ce 0f 3d 09 ee 9b 3d fa 4b d4 3c
       0.052194443 0.03510901 0.07613761 0.025915135
0002d0 24 e5 52 3d 6e 7c 33 3d fe 8b 89 3d 7d 08 44 3d
       0.051488057 0.043819837 0.067161545 0.047859658
0002e0 aa 5e 6b 3d 05 31 6a 3d 41 eb 0d 3d 91 80 df 3c
       0.057463326 0.057175655 0.034648184 0.027282985
0002f0 2a f2 41 3b 8d f6 51 3d 25 28 62 3d 48 a7 6c 3d
       0.0029593804 0.05126052 0.055214066 0.05777672
000300 5b 5b 1f bc 61 d2 27 3c 71 12 1e bc f7 5a 4b bc
       -0.009726371 0.010243029 -0.009647951 -0.012411824
000310 ad bc 80 bc e9 ae 58 3c 14 d1 b3 bc 5a 32 dc 39
       -0.015714968 0.013225296 -0.021950282 0.00041999185
000320 46 67 e5 3a 4c 3f 66 3c 45 25 07 bd fb f4 0a bd
       0.0017502091 0.014053177 -0.032994527 -0.033925038
000330 9d b5 f7 bc d7 b7 5a 3c f1 30 df bc 4d 59 98 3b
       -0.030237967 0.013349495 -0.027245017 0.0046493174
000340 e1 72 32 3d 90 55 04 3d 09 5e bf 3c 4d d8 86 3c
       0.04356659 0.03230816 0.02336027 0.016460562
000350 5e 0f be 3c a1 6a 22 3c 7f e7 a2 3c c7 87 97 3c
       0.023200687 0.009913118 0.019885777 0.01849736
000360 ed ed 5d bc da 82 3a bb 72 7a 05 3d 65 5f 9c bc
       -0.013545495 -0.0028459341 0.032587476 -0.019088456
000370 4d 30 12 3c a3 2b 0a 3d d3 9e 61 3c 40 0f 99 ba
       0.008922649 0.03373302 0.013770777 -0.0011677518
000380 cd 40 dd 3c 35 5d 6f 3d 85 2b bf 3c c2 f7 09 3d
       0.027008438 0.0584385 0.023336181 0.033683546
000390 88 23 10 3d 39 33 0b 3d 11 fe 1c 3d 20 c3 63 3d
       0.035190135 0.033984397 0.038328234 0.055606008
0003a0 37 f2 2f 3d 7f 86 8a 3d 8b e0 5d 3d bc 2b a5 3b
       0.042955603 0.06763934 0.05416922 0.005040614
0003b0 ec fa 31 3d 32 f4 37 3c 1d 8f 34 3c 13 cf f5 3c
       0.04345219 0.011227654 0.011020449 0.030005967
0003c0 f1 f4 a2 3d 7f c6 b2 3d 58 1e 3e 3d 3b e7 7a 3d
       0.07956875 0.087292664 0.046415657 0.061255675
0003d0 ef f7 b0 3d 3d 51 01 3d 18 f8 a7 3d f9 20 eb 3c
       0.086410396 0.031571615 0.08201617 0.028702246
0003e0 5c 5e 63 3d 91 fc 66 3d 0e f1 2e 3d d7 bb 5f 3d
       0.05550991 0.05639321 0.042710356 0.054622497
0003f0 6c 34 95 3d 7d 77 21 3d 43 82 fa 3c 95 a0 12 3d
       0.07285389 0.039420594 0.030579692 0.035797674

TxNN_main.fc0.bias f4 [64]
000000 23 63 86 bc cf 32 d1 bb 44 3a 87 ba bd 8c e2 39
       -0.016404694 -0.0063842307 -0.0010317047 0.00043210937
000010 e9 0c d8 3c 12 7e fb bc a5 60 2e bd ae 6f 8a bb
       0.026373344 -0.030699763 -0.042572636 -0.004224739
000020 10 3f 6f 3b cb d5 4a bd 30 69 06 3c a8 b2 62 bd
       0.0036506094 -0.049520295 0.00820379 -0.05534616
000030 53 46 83 bc e8 34 31 3d 51 da 24 bd 20 2b b0 bc
       -0.016024744 0.043263346 -0.040247265 -0.021504939
000040 a1 a8 ae bc 36 b3 ed bc 4b 03 01 bd 03 f3 a9 ba
       -0.021320643 -0.029016118 -0.03149728 -0.00129661
000050 ba 69 1c bc 59 fc de 3c 5a 6c 9a bc d9 15 07 3c
       -0.009546692 0.027219938 -0.018850494 0.008244955
000060 3c 9b 7b ba 06 22 5b 3b 33 df cd bc e9 5b 54 3d
       -0.0009598022 0.0033437028 -0.025130844 0.051845465
000070 a4 ed 4b 3d 30 11 4a 3d 03 47 dc bb 10 66 29 bd
       0.04978718 0.049332798 -0.0067223324 -0.0413571
000080 b5 a1 28 3c a2 10 7a 3c fe 88 f4 bb 66 9c 1c 3d
       0.01029246 0.015262755 -0.00746262 0.03823509
000090 c1 bc 37 3d 98 b0 d3 3c c0 7c 6d 3c 0c 14 d8 3b
       0.044857744 0.025841042 0.014495075 0.0065941866
0000a0 0d e1 81 3b cd a2 47 3c 2e b1 2b 3c bf 83 00 bd
       0.0039635957 0.012184811 0.010479255 -0.031375643
0000b0 ce ae e5 3b 35 e8 89 3b 40 4e e1 bc 4e 4e 9b 3a
       0.0070093637 0.0042085894 -0.027503133 0.0011848898
0000c0 87 b1 e1 3c 42 cd 1b 3d 05 84 80 3b 57 ea 25 bd
       0.027550472 0.038037546 0.003921988 -0.040506687
0000d0 53 3e 98 3c 3c 49 93 bb 3c 52 6b 3c 75 08 21 bc
       0.018584406 -0.004494814 0.014362868 -0.0098286765
0000e0 49 73 26 3c eb e6 5a bc b9 e8 7e bb 7e 49 2b bd
       0.010159322 -0.013360719 -0.0038896038 -0.041818134
0000f0 9f fd 6c bc df d4 3d 3b 6b ca cb bb 77 80 f8 bc
       -0.014464765 0.0028965992 -0.0062191985 -0.030334694

TxNN_main.fc1.weight f4 [32, 64]
000000 02 f1 2f 3d 3e b5 c7 bd a3 15 bd bd 3d e8 3d bc
       0.042954452 -0.09751366 -0.092326425 -0.011591014
000010 3b 1d 80 3d 33 b2 88 bd 8d 8e cd bd 6d 6f f3 bd
       0.06255575 -0.06674614 -0.10036955 -0.11886487
000020 9a 9f 0d bc 70 a6 d7 bd 63 ba 90 3d 90 64 b8 b8
       -0.008644009 -0.10529792 0.070668004 -8.792535e-05
000030 de 0c 48 3c b1 e1 c0 3d f0 d3 0e 3d cd e7 1d 3d
       0.012210099 0.09418047 0.034870088 0.03855114
000040 04 7a f2 3d 1d 5c 70 bc f8 16 82 bd 8c 6b 87 3c
       0.11839679 -0.014670399 -0.06352037 0.016530775
000050 7a c6 77 3d 1c 73 bf 3c db 4f 54 ba 8f 84 1a 3d
       0.060492016 0.023370318 -0.00080990576 0.037724074
000060 9a 39 96 3d 02 bf 27 3c e1 c7 c6 bd 48 c9 99 3d
       0.073352054 0.010238411 -0.097060926 0.075090945
000070 1d 01 cd bd 87 28 2f 3d 36 ff 96 3d c4 df f4 3c
       -0.10009978 0.04276326 0.073728964 0.029891856
000080 1c 7b 00 3d 5d 3e 5e bd d8 3c ac bd a4 ed 67 3d
       0.031367406 -0.054258693 -0.084100425 0.056623116
000090 31 f0 a1 bd 7a 0e 0b ba c7 52 be bd c6 76 50 bc
       -0.07907141 -0.00053045864 -0.09293132 -0.01272363
0000a0 9e c0 8b 3d 72 bb b0 bd 27 e2 06 3e ba 55 f8 3c
       0.06823848 -0.08629502 0.13172208 0.030314315
0000b0 a2 60 0d 3d 3f 1d f5 3d d7 a6 db 3d bf a5 6b 3c
       0.034515984 0.11968469 0.107251815 0.014382779
0000c0 95 20 13 3e b0 a5 67 bc c8 35 6f 3c 2e 0e f7 bd
       0.14367898 -0.014138624 0.014600225 -0.120632514
0000d0 dc 64 20 bd c7 f4 db bc c7 f7 3d 3d 43 6b 76 bd
       -0.039158687 -0.026850117 0.046378877 -0.060160886
0000e0 18 30 45 bd c9 4c 01 3e 22 8a e4 3c 20 15 fd bd
       -0.04814157 0.12626947 0.027897898 -0.12357545
0000f0 1e dc 3a 3d 33 d4 2f 3c cd 0e 33 3d 38 9e 72 bd
       0.045620076 0.010731745 0.043715287 -0.05923292
000100 c5 62 28 3c 19 c9 aa bd af 8a 07 3d c5 64 0c bc
       0.010277455 -0.083391376 0.033091243 -0.008568947
000110 56 5f 37 bd 2a 32 c9 bd 58 6f 49 3b 50 dc 81 3c
       -0.044768654 -0.09824021 0.0030736532 0.015852123
000120 33 38 c3 3d 15 a5 14 be 0d bc 42 bc 27 86 b5 bd
       0.095322035 -0.14516099 -0.011885655 -0.08863478
000130 a3 f9 b8 bd 2c 17 26 3d 1a 31 2d 3d 75 b2 25 bd
       -0.090319894 0.040549442 0.042283155 -0.040453393
000140 05 cb 60 3b b7 55 32 bc d7 d7 84 bd ca f8 03 be
       0.0034300697 -0.010884694 -0.06486481 -0.12887874
000150 91 51 16 bd 39 14 c4 3d 5d 24 ee 3c 95 9b 35 3d
       -0.03669888 0.0957417 0.029070074 0.044337828
000160 a1 a3 c5 bd da bb 2c 3d 81 0b 13 be 59 d7 69 bc
       -0.0965035 0.042171337 -0.14359857 -0.014272534
000170 bd 47 f4 bc ee 1b 9c bd 35 f2 52 bc 94 94 03 be
       -0.029819364 -0.07622515 -0.0128751295 -0.12849647
000180 6a 24 19 3e e8 62 24 bc 79 1d c2 3b 16 24 1e 3e
       0.14955297 -0.010033347 0.0059239236 0.15443453
000190 e7 17 1c 3e 48 5f 06 3e 3a 28 a6 3d 64 67 0c be
       0.15243493 0.13122284 0.08113141 -0.13711315
0001a0 86 17 0c be 42 2c 0d 3e 6e e9 49 3d 49 ad f2 bd
       -0.13680848 0.13786414 0.04929488 -0.11849458
0001b0 22 0b 37 bc dd 23 c7 3d 71 1f a1 bd b2 68 f0 bd
       -0.011172088 0.09723637 -0.07867325 -0.11738719
0001c0 a6 5c 98 3d 22 97 32 bc c0 37 85 3d ef eb db bc
       0.07439546 -0.010900291 0.06504774 -0.0268459
0001d0 7c 64 95 3d 67 be 29 be 87 97 23 3c 9d a5 db bd
       0.072945565 -0.16576539 0.009984857 -0.107249476
0001e0 5a d5 d5 3d 2e 2c d7 bd 65 b2 3d bd c3 1b 27 be
       0.10441084 -0.105064735 -0.04631271 -0.16319184
0001f0 5f 81 3a bd 3e c4 78 bc 6d 2a aa bd 3e b1 96 bd
       -0.045533534 -0.0151835065 -0.08308873 -0.07358025
000200 8f df 3e bd 90 1b c4 bc b9 d1 a0 3c 65 f6 d1 bd
       -0.04659992 -0.023938924 0.019631254 -0.10252074
000210 65 4d f2 bd 16 cb 19 3e d7 0f 22 3d c4 22 ae bd
       -0.11831168 0.15018877 0.039565887 -0.08502725
000220 5a ff 06 be 28 86 8e bd 94 1c 88 bc 4b bc 93 bb
       -0.13183346 -0.06959182 -0.01661519 -0.0045085303
000230 14 f5 72 bd 8c 83 ab bc 04 8c 13 3e 4e d9 09 3e
       -0.059315756 -0.02093675 0.1440888 0.13461801
000240 3f cb 86 bd 85 78 a5 3d a7 9c d5 3c ef d6 2a 3e
       -0.06581735 0.08079628 0.026075674 0.16683553
000250 aa ad 68 bd cf db 95 3d 12 30 bd 3d 6b b2 d1 3d
       -0.056806244 0.07317316 0.09237684 0.10239109
000260 96 b3 96 3d a2 6c 0f bd 7b e9 48 bd c1 33 c3 bd
       0.07358472 -0.03501571 -0.04905079 -0.09531356
000270 c2 85 1f bd ba 1b 51 bd b0 91 a8 3d f8 57 03 3e
       -0.03894592 -0.051051833 0.08230913 0.12826526
000280 0f b6 9d 3b 5f 0d dc bb 2c ca 81 3d 97 94 fc bd
       0.004812963 -0.006715461 0.06337389 -0.12333029
000290 d7 e2 dd bd 18 16 9c ba 08 3a 1c be f1 58 b8 3d
       -0.10834282 -0.001190844 -0.15256512 0.09001339
0002a0 dd 0c 81 3d 99 af 8a bc f0 ec 8a 3d 2a 57 58 3d
       0.063012816 -0.016929435 0.067834735 0.0528175
0002b0 38 e1 09 bc 4d fa 41 bd 47 22 e9 bb 25 8c 1d 3e
       -0.008415513 -0.047357846 -0.007114682 0.15385492
0002c0 65 be ca bc 09 7c d9 bd 71 1e 29 bd de e7 de 3b
       -0.02474899 -0.10619361 -0.041288797 0.006802543
0002d0 07 9e c0 3d 8c dc 92 bd 34 79 1f 3c 95 c1 ff 3c
       0.09405141 -0.07170972 0.009733487 0.031220237
0002e0 ed f4 bf bd f9 90 c4 3d 6d 67 eb bd 8c 1c 99 3d
       -0.09372888 0.09597964 -0.11494336 0.07476148
0002f0 e5 3e 80 bd 86 fb 18 3e dc f0 ac bc 79 85 02 3e
       -0.06261996 0.14939699 -0.021110944 0.12746228
000300 d3 a8 9b bc 5d c3 63 bd bc 8e 93 3d 7c 70 f0 3d
       -0.0190014 -0.055606235 0.07204959 0.11740205
000310 fc 05 22 3e 51 e6 c2 3c f4 f4 8f bd 33 3a 42 bb
       0.15822595 0.023791464 -0.07029143 -0.002963674
000320 1c 9d 93 bc 47 48 f7 bd d6 c8 c6 3c 20 b9 fb 3c
       -0.018019252 -0.12074333 0.024265688 0.030727923
000330 c0 e3 ec bd 3f 5b bc bc 0d c5 f6 bd ea ea 0c be
       -0.11566877 -0.022992728 -0.12049303 -0.13761488
000340 3f f1 64 bd df 5c 8c bd 5e b4 04 be e5 8d 1e 3d
       -0.055894133 -0.06853651 -0.1295943 0.03870954
000350 5b 0c 3c bd 41 42 2a 3d 51 f1 c1 3d 03 02 96 bc
       -0.04591022 0.04156709 0.094698556 -0.018311506
000360 9c 41 15 3d f6 33 ac 3c e2 85 d3 38 46 fc 4d bd
       0.036439523 0.02102087 0.00010086202 -0.050289415
000370 ca 89 e6 3d e4 90 1a 3d 5b 98 64 bc 0a 83 02 bc
       0.1125675 0.037735835 -0.01395234 -0.007965812
000380 c0 1e e1 3d 9c d9 2b 3c de 29 01 be 64 f1 c2 3c
       0.10992193 0.010488894 -0.12613627 0.023796745
000390 38 31 08 bd 00 50 c6 3b 8d b7 87 bd 29 1b 90 3d
       -0.033250064 0.006052017 -0.066268064 0.070364304
0003a0 60 71 06 be 9e 53 07 3e 19 af d5 3d 79 df 3a 3d
       -0.13129187 0.13215491 0.10433788 0.045623276
0003b0 a4 00 fe 3d 6c 28 b3 bd 3d 26 0b 3d 2e cb 04 be
       0.12402466 -0.08747944 0.033972014 -0.12968132
0003c0 96 49 08 3e f1 d3 92 bd 8c d2 ef 3d 29 6a bf bd
       0.13309321 -0.07169331 0.117100805 -0.0934642
0003d0 5d 74 4b 3d f7 15 a9 3d 5f 50 a8 3c 58 50 c7 3d
       0.04967152 0.082561426 0.020546136 0.09732121
0003e0 03 e3 5f bd 0e 8f ab bd 78 a4 74 3c 03 23 4a 3d
       -0.054659855 -0.08376895 0.0149317905 0.049349796
0003f0 43 52 bb bc 56 be 1c bd a2 14 d8 bc cd fa ac 3c
       -0.022866374 -0.038267456 -0.026377026 0.021115685

TxNN_main.fc1.bias f4 [32]
000000 1a ac 98 bd a3 e2 aa bd 99 4f 04 3d 09 78 ff 3d
       -0.07454701 -0.08344009 0.032302473 0.12474067
000010 6a 87 af 3d 6d b3 1a b9 79 5b 27 3d ef 93 9e bd
       0.0857075 -0.00014753426 0.04085872 -0.0774306
000020 33 1c 98 3d 65 39 14 bc 39 d7 f2 bd 9e aa 8c 3d
       0.074272536 -0.009046887 -0.11857457 0.0686848
000030 91 0b 82 bd b6 44 8e 3d 19 3f a5 bd 3e f1 56 bd
       -0.06349862 0.06946699 -0.080686755 -0.05247616
000040 ac 0d b9 3d 54 f1 95 3d 4a 58 38 3d a4 e1 8a 3c
       0.09035811 0.0732142 0.045006074 0.016953297
000050 23 ae a2 3c 72 ac 81 bd c9 8a 66 3d 63 50 be 3d
       0.019858425 -0.063317195 0.0562847 0.09292676
000060 a7 12 bb 3d 9c d0 ad bd a8 de 89 3d 6c 4e d2 bc
       0.09134417 -0.08487055 0.067319214 -0.02567216
000070 5b f5 d0 3c 79 ce cb bc dc 00 a4 bd bc b5 8d 3d
       0.02550762 -0.024878727 -0.080079764 0.06919429

TxNN_main.fc2.weight f4 [32, 32]
000000 fd 75 e3 bd 95 de 4d 3c 64 35 5e 3d 2d cb 3e be
       -0.11106489 0.012565275 0.054250136 -0.18632193
000010 59 d4 ea bd 34 1b 4b 3e 1a 84 8f 3d f7 c0 23 be
       -0.11466283 0.19834596 0.07007618 -0.15991579
000020 ae a6 ae 3d 52 9e 7c bd de 0d 53 3e ad f3 55 bd
       0.085278854 -0.061674424 0.20610759 -0.05223434
000030 d1 51 b2 3d e5 79 35 be 68 e4 0b be 09 f8 b8 bd
       0.087070115 -0.1772228 -0.13661349 -0.09031684
000040 49 18 80 3c c9 34 88 bd 3b b9 64 3d 42 6c f0 3d
       0.01563658 -0.06650693 0.055840712 0.117393985
000050 db f9 d3 3d 66 af 82 bd 41 d2 c2 bc 06 c5 d6 3b
       0.103503905 -0.06381111 -0.023781898 0.0065542487
000060 36 4a 41 be bf 16 38 3e a1 18 74 bd 16 a4 b4 3c
       -0.18875965 0.17977427 -0.0595938 0.022050899
000070 3d 89 68 3d f8 7b 60 bd 5b 37 0f 3e 14 28 c5 3d
       0.056771506 -0.054805726 0.1398596 0.09626785
000080 cf 7c 2b 3e 4d df 4c bd f8 3c e2 bc 17 e4 be bd
       0.1674683 -0.050017644 -0.027616963 -0.093208484
000090 60 69 44 be 96 51 e0 bd 8d c2 d4 3c ee a6 02 bd
       -0.19180822 -0.10953061 0.025971675 -0.031897478
0000a0 49 99 a1 bc f7 93 24 3e 1e 0f 39 bd b2 6d fc bd
       -0.019726412 0.16072069 -0.045180432 -0.1232561
0000b0 e3 ba 23 3e f8 5a 90 bd c8 7a b7 3c b3 3b a9 3d
       0.1598926 -0.07048601 0.022397414 0.0826334
0000c0 4b 90 0d 3e 34 92 21 3e a3 d7 8c 3c 36 5b d2 bd
       0.13824575 0.15778428 0.017192667 -0.10271303
0000d0 c2 17 1e 3e 5a ee 04 be b6 75 f0 bd 99 b6 1a 3e
       0.1543875 -0.12981549 -0.117412016 0.15108718
0000e0 46 5f 4b be 25 df af 3d 30 34 3b 3e dd 08 05 be
       -0.19860563 0.08587483 0.18281627 -0.12991662
0000f0 de ab 09 be c2 95 4e 3e a9 1f 4f be f7 ba 5b 3d
       -0.13444468 0.20174316 -0.20226921 0.0536451
000100 43 a8 09 3d 0d d5 2a 3e 1f 66 a3 3b f8 04 82 bd
       0.033607733 0.16682835 0.004986539 -0.06348604
000110 b1 6e ff bd 94 c4 b2 3d 9b ef 96 bc a7 fb 85 3c
       -0.124722846 0.087289006 -0.0184248 0.016355349
000120 3e 9c 3c 3d 17 5e 0a 3e 8e a2 e0 3c a9 5c 2a 3e
       0.04604744 0.13512455 0.027421262 0.1663691
000130 31 8b 86 3c da 33 27 bd 0d e3 25 3d fb 43 a3 bd
       0.016423794 -0.040820934 0.040499736 -0.079719506
000140 54 53 89 bd f5 3a cb 3c 48 a8 87 bd 77 08 a7 b9
       -0.06705347 0.024808386 -0.06623894 -0.0003185903
000150 2c 38 1d be 07 52 f0 bd ec b6 5b bd ce b7 a5 3d
       -0.15353459 -0.117343955 -0.053641245 0.080916986
000160 5e 9d 68 bd 69 41 0b be e5 37 4b bd 59 41 0b 3e
       -0.056790702 -0.1359917 -0.049613852 0.13599147
000170 5e 14 37 3e 9a ec cb bc 59 66 02 3e 04 2b fa bb
       0.17878863 -0.024893094 0.12734355 -0.0076345224
000180 99 fd d8 bc 37 c0 94 bd b0 c5 28 3e 9d e9 1a 3d
       -0.026488112 -0.072632246 0.16481662 0.037820447
000190 dc a3 50 bd 9b d8 4a 3e 11 ac db 3c 33 3a 7a 3d
       -0.05093752 0.19809191 0.026815446 0.06109066
0001a0 86 0e d1 3d 6c 2d 82 bc 10 f9 0f 3e 85 42 67 bd
       0.10207848 -0.0158908 0.14059854 -0.056459922
0001b0 32 c3 e6 bd b3 d3 f1 bd 07 87 91 3d 32 4a 12 3e
       -0.11267699 -0.118079565 0.071058325 0.14286116
0001c0 22 37 e7 3b a6 f7 1e bd 89 0f 3a 3e 6c 15 7b bc
       0.007056133 -0.038810395 0.18169989 -0.015324932
0001d0 b7 41 bb 3d 8d f4 97 bd 6e e1 1d be f2 fd 6d bd
       0.091433935 -0.07419691 -0.15418026 -0.05810351
0001e0 7e 39 e2 3c ff 5a 8d 3d ae 7d b9 3c 60 6c 81 bd
       0.027615305 0.06902122 0.022642937 -0.06319499
0001f0 e8 8e ae 3c 97 41 51 3e 9a 3d a1 bd 45 6f d4 bd
       0.021308377 0.20435177 -0.07873078 -0.103727855
000200 94 49 c5 bd d7 47 9d bc c8 78 20 3e 83 23 72 3d
       -0.096331745 -0.019199295 0.15671074 0.059115898
000210 c7 ab 40 be 85 ab 71 bd c8 27 ec bd f6 da 10 3d
       -0.18815528 -0.059001464 -0.11531025 0.035365067
000220 d4 9d 04 3e 61 75 20 3e 90 14 83 bc 43 47 29 3d
       0.12950832 0.15669776 -0.016001016 0.041327726
000230 f9 1e 34 3d f1 80 44 be 84 8f 13 3e 06 db 19 3e
       0.04397485 -0.19189812 0.14410216 0.15024957
000240 02 ae f9 bd 70 d4 03 3e 82 10 f4 3d 67 13 ea bd
       -0.121913925 0.12874007 0.11917211 -0.11429482
000250 cc 42 1b 3e 17 19 47 be 1e a7 b1 3d 42 fc 38 3c
       0.151622 -0.19443165 0.08674453 0.011290612
000260 2d a5 b2 bd 60 b0 c0 3d 74 31 02 3e 19 5e 19 be
       -0.08722911 0.09408641 0.12714177 -0.14977302
000270 c1 53 af 3d d5 89 6e bc e3 1c e2 3d 3d cd 18 3e
       0.08560897 -0.014559229 0.11040666 0.14922042
000280 2f 6b 3f 3e 38 5b 9a 3d bb 6d b5 bc 21 d7 a5 bd
       0.18693231 0.0753693 -0.02214705 -0.08097673
000290 4c b6 09 be f4 9e 8f bd da 81 08 be d4 6b 1d be
       -0.13448447 -0.0701274 -0.13330784 -0.15373164
0002a0 c9 a7 d8 3b cf e7 52 bd 0f 9b 44 3d 86 30 19 3d
       0.0066117984 -0.0514906 0.047999438 0.03739979
0002b0 88 ce 44 3e 16 9e 17 3e c9 a4 81 3d 8e f6 b9 bd
       0.1921941 0.14806399 0.063302584 -0.0908023
0002c0 e4 63 04 3e d3 4f 34 3d bf d7 c9 bd be f7 eb 3d
       0.1292873 0.04402144 -0.098556034 0.115218624
0002d0 87 33 d1 3d ec 1f 80 3d d4 4b 12 be b3 23 a9 3d
       0.10214906 0.062560886 -0.14286739 0.08258762
0002e0 fd ff 03 be 3f 04 d9 3c 52 01 36 3e cb f4 1a bd
       -0.1289062 0.026491283 0.17773941 -0.03783111
0002f0 d1 b4 42 be cf a5 72 3c 14 8b 9d 3d 34 c1 cb 3c
       -0.19014288 0.01481004 0.07692543 0.0248724
000300 23 a5 0a be 41 f4 16 3e df 1d 59 be 0c 98 00 3e
       -0.13539557 0.14741613 -0.21202801 0.12558001
000310 4b d3 1a 3e 36 45 27 3b c3 0c 47 be 72 cb a5 3d
       0.15119664 0.002552343 -0.19438462 0.08095445
000320 5c 70 cd bc 52 da 36 be a4 c4 ed bd fe 60 e1 3d
       -0.025077991 -0.1785672 -0.11609772 0.11004828
000330 69 c0 fe bd 13 bd 8a bd 4d 5d d3 3d 0d 0c be 3b
       -0.12439043 -0.06774344 0.1032053 0.0057997764
000340 86 4a 73 bd 8a 0a a3 bd e3 f3 3c be 2f 1a 1b 3e
       -0.059397243 -0.079609945 -0.1845241 0.15146707
000350 aa 6a 07 be 07 bf 0a 3c ba 95 2a 3e e9 a6 07 be
       -0.13224283 0.008468396 0.16658679 -0.13247265
000360 ab 4b 1a 3e fb 55 0b be 7c 19 2a bd be 2f 87 3d
       0.15067928 -0.13607018 -0.04152821 0.06600903
000370 06 1f 0a 3e 05 a6 90 bc 9f 08 58 3e 25 02 e4 3d
       0.13488397 -0.01765729 0.21097039 0.111332215
000380 83 df a6 bd 85 a6 a0 bd 77 ba ae bd cb 3d e2 bd
       -0.081481 -0.07844261 -0.08531659 -0.11046942
000390 9b b2 49 bd b0 96 8e 3d 8a fa 66 bd b4 87 5a bc
       -0.049242597 0.06962335 -0.056391276 -0.013338018
0003a0 a5 94 d1 bd 3b 9b 0c be 82 54 11 bd b7 84 1a be
       -0.1023343 -0.1373109 -0.035480984 -0.15089689
0003b0 3c 3a 53 be 8a 4e 1e 3e 38 d0 cb 3d 09 19 53 be
       -0.20627683 0.15459648 0.09951824 -0.20615019
0003c0 70 15 4d bc 5c 95 a8 3b 1a 14 5b 3d 15 24 c2 bd
       -0.012517318 0.005144758 0.053485967 -0.09479538
0003d0 3b 01 7c 3d 69 6b f4 3c 96 46 07 3e f6 f4 11 bd
       0.06152461 0.029836373 0.1321052 -0.035634004
0003e0 13 ad 2c 3d 42 1f df bd cd c1 4e bd 25 42 24 3e
       0.042157244 -0.10894634 -0.05047779 0.16040857
0003f0 e4 cd 01 be 94 a4 3c be d1 2b c1 bd 15 cd 19 3d
       -0.12676197 -0.18422157 -0.094321854 0.037549097

TxNN_main.fc2.bias f4 [32]
000000 85 dd 27 be a4 15 b4 bd 6e b9 2a 3e eb ab 46 3c
       -0.16393097 -0.0879319 0.16672298 0.012125949
000010 bc 14 11 be 50 ac 59 be 45 db 48 bd 54 55 1e bd
       -0.14168066 -0.21257138 -0.049037237 -0.038655594
000020 01 e7 0a 3e 6d 09 00 3e 44 5d 43 3a 83 33 34 3e
       0.13564683 0.12503596 0.00074525573 0.17597775
000030 a6 3d 88 3c d2 e7 22 3e 7f 1f 0f 3e 09 f1 b0 3d
       0.016630959 0.15908745 0.13976859 0.08639724
000040 b9 66 d0 bb 1b 00 0a be 46 a1 95 bb 29 2a c8 3c
       -0.0063599017 -0.13476603 -0.0045663444 0.024434166
000050 d7 d3 cc 3b cf 07 59 3e 2e b8 0f 3e a7 fc 57 bd
       0.006250839 0.21194385 0.14035103 -0.052731182
000060 22 b4 c6 bd 3c cf 41 3d 92 80 0c 3d ce 39 e5 3c
       -0.09702326 0.047316775 0.0343023 0.027981665
000070 01 01 01 3e d2 2d 35 3d b5 19 2d 3e b7 7e 9c 3d
       0.12598039 0.04423315 0.16904338 0.076413564

TxNN_main.fc6.weight f4 [1, 96]
000000 e6 dc de bd 44 6b 17 be 8f 2b be 3d 8f 4b 8f bd
       -0.10881977 -0.14787012 0.09285652 -0.069968335
000010 c4 4f 03 be f2 dd a3 bd a8 0a 02 3e 42 9b 90 3d
       -0.12823397 -0.08001317 0.12699378 0.07060863
000020 4d b0 b5 3d 61 c3 66 bd 62 3b b3 3d fb 72 ca 3d
       0.08871517 -0.05633867 0.08751561 0.09885212
000030 a8 bc df bd b3 ec fc 3d 82 e9 79 3d 25 6d 33 bd
       -0.10924655 0.12349834 0.061013706 -0.04380526
000040 7f 58 db bd e5 84 7e 3d bd 20 06 be 12 8e 8e bd
       -0.10710239 0.062138457 -0.13098426 -0.069606915
000050 b3 19 f8 3d a9 91 bb 3d 1e 49 ce bd 2c 1c 3e bc
       0.12114277 0.09158642 -0.1007254 -0.011603396
000060 5c ed d6 3d 11 14 d6 3d ae fd 36 bb 55 07 dc bd
       0.104944915 0.10453046 -0.00279222 -0.10743586
000070 d9 8f 72 3d 1a 82 d7 3d 69 21 f0 3c 44 3e e2 3d
       0.059219215 0.10522862 0.029312806 0.110470325
000080 fb e2 e2 3c dc 3b 9c 3d 4b 4b 03 3d 91 ca 81 3d
       0.027696123 0.07628605 0.032054227 0.063374646
000090 3c e6 2d 3d 1d 63 29 bd 6d 75 25 bd 19 31 c4 bd
       0.042455897 -0.041354287 -0.04039519 -0.09579677
0000a0 e0 57 c9 3d 8b 63 64 bd 98 9f b6 3d e3 76 91 bd
       0.09831214 -0.055758994 0.08917159 -0.07102754
0000b0 11 99 ff bc 13 9b fe 3c 8a 81 85 bc 85 6d 7f bd
       -0.031200917 0.031079805 -0.01629712 -0.062360305
0000c0 66 37 94 bd 5a 9a 82 bd a0 d4 ed bd 1d 30 66 bd
       -0.07237129 -0.063770965 -0.116128206 -0.05619823
0000d0 e5 5c 69 3c b9 eb 8f 3d e3 43 a1 bd be 1a ee bc
       0.014243339 0.070273824 -0.078742765 -0.029065486
0000e0 f4 f9 ce bd f9 ba ac bd fc 5b a0 bd 05 51 8a 3d
       -0.101062685 -0.084341 -0.078300446 0.067537345
0000f0 e5 b6 c6 3d 1f 3b cb 3d dd bd ab bd d9 93 1b bd
       0.09702853 0.09923386 -0.08385823 -0.037982795
000100 c5 47 97 3d 13 96 a5 3d ed 23 a1 bd d9 a1 a7 3d
       0.07386736 0.08085265 -0.078681804 0.08185167
000110 a5 3b 0a 3d f0 25 fc 3c 25 67 95 3d d7 e0 55 bd
       0.033748288 0.030779809 0.07295064 -0.052216377
000120 74 47 6b bd 9c 3b 4b 3d 79 d7 f5 3c 7e 6e 67 bd
       -0.05744119 0.049617395 0.030009972 -0.056501858
000130 36 c5 8b 3d d4 c1 a6 bc a9 e1 c9 bd 68 7e 29 bd
       0.068247244 -0.020356096 -0.098574944 -0.041380316
000140 94 b4 70 3d 38 82 a8 3d 6c fa 82 3d bf b7 a3 bd
       0.058765963 0.08227962 0.063954204 -0.07994031
000150 85 80 6a 3d 33 38 d1 bd cf 39 68 bd be a3 77 bd
       0.057251472 -0.10215797 -0.056695756 -0.06045889
000160 86 6e 16 3d 9d 89 bd bd bf a0 8d 3d 8c 72 7c bd
       0.036726497 -0.09254763 0.069154255 -0.061632678
000170 d5 56 89 bd 12 bc b9 bd 30 70 8c bd 13 81 a5 bd
       -0.06706015 -0.09069075 -0.068573356 -0.080812596
